{"format": "graph-model", "generatedBy": "2.3.0", "convertedBy": "TensorFlow.js Converter v2.4.0", "userDefinedMetadata": {"signature": {"inputs": {"input_1:0": {"name": "input_1:0", "dtype": "DT_FLOAT", "tensorShape": {"dim": [{"size": "-1"}, {"size": "39"}, {"size": "-1"}, {"size": "-1"}, {"size": "1"}]}}}, "outputs": {"Identity:0": {"name": "Identity:0", "dtype": "DT_FLOAT", "tensorShape": {"dim": [{"size": "-1"}, {"size": "4"}]}}}}}, "modelTopology": {"node": [{"name": "StatefulPartitionedCall/functional_1/lstm/PartitionedCall/TensorArrayV2_1/element_shape", "op": "Const", "attr": {"dtype": {"type": "DT_INT32"}, "value": {"tensor": {"dtype": "DT_INT32", "tensorShape": {"dim": [{"size": "2"}]}}}}}, {"name": "StatefulPartitionedCall/functional_1/lstm/zeros_1/packed/1", "op": "Const", "attr": {"value": {"tensor": {"dtype": "DT_INT32", "tensorShape": {}}}, "dtype": {"type": "DT_INT32"}}}, {"name": "StatefulPartitionedCall/functional_1/lstm/zeros_1/Const", "op": "Const", "attr": {"value": {"tensor": {"dtype": "DT_FLOAT", "tensorShape": {}}}, "dtype": {"type": "DT_FLOAT"}}}, {"name": "StatefulPartitionedCall/functional_1/lstm/PartitionedCall/TensorArrayUnstack/TensorListFromTensor/element_shape", "op": "Const", "attr": {"value": {"tensor": {"dtype": "DT_INT32", "tensorShape": {"dim": [{"size": "2"}]}}}, "dtype": {"type": "DT_INT32"}}}, {"name": "unknown_7", "op": "Const", "attr": {"dtype": {"type": "DT_FLOAT"}, "value": {"tensor": {"dtype": "DT_FLOAT", "tensorShape": {"dim": [{"size": "3968"}, {"size": "128"}]}}}}}, {"name": "StatefulPartitionedCall/functional_1/lstm/strided_slice/stack", "op": "Const", "attr": {"value": {"tensor": {"dtype": "DT_INT32", "tensorShape": {"dim": [{"size": "1"}]}}}, "dtype": {"type": "DT_INT32"}}}, {"name": "StatefulPartitionedCall/functional_1/lstm/strided_slice/stack_1", "op": "Const", "attr": {"value": {"tensor": {"dtype": "DT_INT32", "tensorShape": {"dim": [{"size": "1"}]}}}, "dtype": {"type": "DT_INT32"}}}, {"name": "StatefulPartitionedCall/functional_1/lstm/strided_slice/stack_2", "op": "Const", "attr": {"dtype": {"type": "DT_INT32"}, "value": {"tensor": {"dtype": "DT_INT32", "tensorShape": {"dim": [{"size": "1"}]}}}}}, {"name": "StatefulPartitionedCall/functional_1/lstm/zeros/packed/1", "op": "Const", "attr": {"value": {"tensor": {"dtype": "DT_INT32", "tensorShape": {}}}, "dtype": {"type": "DT_INT32"}}}, {"name": "StatefulPartitionedCall/functional_1/lstm/zeros/Const", "op": "Const", "attr": {"value": {"tensor": {"dtype": "DT_FLOAT", "tensorShape": {}}}, "dtype": {"type": "DT_FLOAT"}}}, {"name": "unknown_8", "op": "Const", "attr": {"value": {"tensor": {"dtype": "DT_FLOAT", "tensorShape": {"dim": [{"size": "32"}, {"size": "128"}]}}}, "dtype": {"type": "DT_FLOAT"}}}, {"name": "unknown_9", "op": "Const", "attr": {"value": {"tensor": {"dtype": "DT_FLOAT", "tensorShape": {"dim": [{"size": "128"}]}}}, "dtype": {"type": "DT_FLOAT"}}}, {"name": "StatefulPartitionedCall/functional_1/lstm/PartitionedCall/time", "op": "Const", "attr": {"dtype": {"type": "DT_INT32"}, "value": {"tensor": {"dtype": "DT_INT32", "tensorShape": {}}}}}, {"name": "StatefulPartitionedCall/functional_1/time_distributed/Reshape/shape/0", "op": "Const", "attr": {"value": {"tensor": {"dtype": "DT_INT32", "tensorShape": {}}}, "dtype": {"type": "DT_INT32"}}}, {"name": "StatefulPartitionedCall/functional_1/time_distributed/strided_slice/stack", "op": "Const", "attr": {"dtype": {"type": "DT_INT32"}, "value": {"tensor": {"dtype": "DT_INT32", "tensorShape": {"dim": [{"size": "1"}]}}}}}, {"name": "StatefulPartitionedCall/functional_1/time_distributed/strided_slice/stack_1", "op": "Const", "attr": {"dtype": {"type": "DT_INT32"}, "value": {"tensor": {"dtype": "DT_INT32", "tensorShape": {"dim": [{"size": "1"}]}}}}}, {"name": "StatefulPartitionedCall/functional_1/time_distributed/strided_slice/stack_2", "op": "Const", "attr": {"value": {"tensor": {"dtype": "DT_INT32", "tensorShape": {"dim": [{"size": "1"}]}}}, "dtype": {"type": "DT_INT32"}}}, {"name": "StatefulPartitionedCall/functional_1/time_distributed/strided_slice_1/stack", "op": "Const", "attr": {"dtype": {"type": "DT_INT32"}, "value": {"tensor": {"dtype": "DT_INT32", "tensorShape": {"dim": [{"size": "1"}]}}}}}, {"name": "StatefulPartitionedCall/functional_1/time_distributed/strided_slice_1/stack_1", "op": "Const", "attr": {"dtype": {"type": "DT_INT32"}, "value": {"tensor": {"dtype": "DT_INT32", "tensorShape": {"dim": [{"size": "1"}]}}}}}, {"name": "StatefulPartitionedCall/functional_1/time_distributed/strided_slice_1/stack_2", "op": "Const", "attr": {"value": {"tensor": {"dtype": "DT_INT32", "tensorShape": {"dim": [{"size": "1"}]}}}, "dtype": {"type": "DT_INT32"}}}, {"name": "StatefulPartitionedCall/functional_1/time_distributed/Reshape/shape/3", "op": "Const", "attr": {"dtype": {"type": "DT_INT32"}, "value": {"tensor": {"dtype": "DT_INT32", "tensorShape": {}}}}}, {"name": "StatefulPartitionedCall/functional_1/time_distributed/resizing/resize/size", "op": "Const", "attr": {"value": {"tensor": {"dtype": "DT_INT32", "tensorShape": {"dim": [{"size": "2"}]}}}, "dtype": {"type": "DT_INT32"}}}, {"name": "unknown_3", "op": "Const", "attr": {"dtype": {"type": "DT_FLOAT"}, "value": {"tensor": {"dtype": "DT_FLOAT", "tensorShape": {"dim": [{"size": "3"}, {"size": "3"}, {"size": "1"}, {"size": "34"}]}}}}}, {"name": "unknown_4", "op": "Const", "attr": {"dtype": {"type": "DT_FLOAT"}, "value": {"tensor": {"dtype": "DT_FLOAT", "tensorShape": {"dim": [{"size": "34"}]}}}}}, {"name": "unknown_5", "op": "Const", "attr": {"value": {"tensor": {"dtype": "DT_FLOAT", "tensorShape": {"dim": [{"size": "3"}, {"size": "3"}, {"size": "34"}, {"size": "64"}]}}}, "dtype": {"type": "DT_FLOAT"}}}, {"name": "unknown_6", "op": "Const", "attr": {"value": {"tensor": {"dtype": "DT_FLOAT", "tensorShape": {"dim": [{"size": "64"}]}}}, "dtype": {"type": "DT_FLOAT"}}}, {"name": "StatefulPartitionedCall/functional_1/time_distributed_6/Reshape_1/shape", "op": "Const", "attr": {"value": {"tensor": {"dtype": "DT_INT32", "tensorShape": {"dim": [{"size": "3"}]}}}, "dtype": {"type": "DT_INT32"}}}, {"name": "StatefulPartitionedCall/functional_1/lstm/PartitionedCall/transpose/perm", "op": "Const", "attr": {"dtype": {"type": "DT_INT32"}, "value": {"tensor": {"dtype": "DT_INT32", "tensorShape": {"dim": [{"size": "3"}]}}}}}, {"name": "StatefulPartitionedCall/functional_1/lstm/PartitionedCall/strided_slice/stack", "op": "Const", "attr": {"dtype": {"type": "DT_INT32"}, "value": {"tensor": {"dtype": "DT_INT32", "tensorShape": {"dim": [{"size": "1"}]}}}}}, {"name": "StatefulPartitionedCall/functional_1/lstm/PartitionedCall/strided_slice/stack_1", "op": "Const", "attr": {"dtype": {"type": "DT_INT32"}, "value": {"tensor": {"dtype": "DT_INT32", "tensorShape": {"dim": [{"size": "1"}]}}}}}, {"name": "StatefulPartitionedCall/functional_1/lstm/PartitionedCall/strided_slice/stack_2", "op": "Const", "attr": {"dtype": {"type": "DT_INT32"}, "value": {"tensor": {"dtype": "DT_INT32", "tensorShape": {"dim": [{"size": "1"}]}}}}}, {"name": "StatefulPartitionedCall/functional_1/lstm/PartitionedCall/while/loop_counter", "op": "Const", "attr": {"value": {"tensor": {"dtype": "DT_INT32", "tensorShape": {}}}, "dtype": {"type": "DT_INT32"}}}, {"name": "StatefulPartitionedCall/functional_1/lstm/PartitionedCall/TensorArrayV2Stack/TensorListStack/element_shape", "op": "Const", "attr": {"value": {"tensor": {"dtype": "DT_INT32", "tensorShape": {"dim": [{"size": "2"}]}}}, "dtype": {"type": "DT_INT32"}}}, {"name": "StatefulPartitionedCall/functional_1/lstm/PartitionedCall/strided_slice_2/stack", "op": "Const", "attr": {"value": {"tensor": {"dtype": "DT_INT32", "tensorShape": {"dim": [{"size": "1"}]}}}, "dtype": {"type": "DT_INT32"}}}, {"name": "StatefulPartitionedCall/functional_1/lstm/PartitionedCall/strided_slice_2/stack_1", "op": "Const", "attr": {"value": {"tensor": {"dtype": "DT_INT32", "tensorShape": {"dim": [{"size": "1"}]}}}, "dtype": {"type": "DT_INT32"}}}, {"name": "StatefulPartitionedCall/functional_1/lstm/PartitionedCall/strided_slice_2/stack_2", "op": "Const", "attr": {"dtype": {"type": "DT_INT32"}, "value": {"tensor": {"dtype": "DT_INT32", "tensorShape": {"dim": [{"size": "1"}]}}}}}, {"name": "unknown_10", "op": "Const", "attr": {"dtype": {"type": "DT_FLOAT"}, "value": {"tensor": {"dtype": "DT_FLOAT", "tensorShape": {"dim": [{"size": "32"}, {"size": "4"}]}}}}}, {"name": "unknown_11", "op": "Const", "attr": {"dtype": {"type": "DT_FLOAT"}, "value": {"tensor": {"dtype": "DT_FLOAT", "tensorShape": {"dim": [{"size": "4"}]}}}}}, {"name": "input_1", "op": "Placeholder", "attr": {"shape": {"shape": {"dim": [{"size": "-1"}, {"size": "39"}, {"size": "-1"}, {"size": "-1"}, {"size": "1"}]}}, "dtype": {"type": "DT_FLOAT"}}}, {"name": "StatefulPartitionedCall/functional_1/time_distributed_1/batch_normalization/FusedBatchNormV3/Scaled", "op": "Const", "attr": {"value": {"tensor": {"dtype": "DT_FLOAT", "tensorShape": {"dim": [{"size": "1"}]}}}, "dtype": {"type": "DT_FLOAT"}}}, {"name": "StatefulPartitionedCall/functional_1/time_distributed_1/batch_normalization/FusedBatchNormV3/Offset", "op": "Const", "attr": {"dtype": {"type": "DT_FLOAT"}, "value": {"tensor": {"dtype": "DT_FLOAT", "tensorShape": {"dim": [{"size": "1"}]}}}}}, {"name": "StatefulPartitionedCall/functional_1/lstm/PartitionedCall/while/enter/_37", "op": "Enter", "input": ["unknown_7"], "attr": {"T": {"type": "DT_FLOAT"}, "parallel_iterations": {"i": "32"}, "frame_name": {"s": "U3RhdGVmdWxQYXJ0aXRpb25lZENhbGwvZnVuY3Rpb25hbF8xL2xzdG0vUGFydGl0aW9uZWRDYWxsL3doaWxl"}, "is_constant": {"b": false}}}, {"name": "StatefulPartitionedCall/functional_1/lstm/PartitionedCall/while/enter/_38", "op": "Enter", "input": ["unknown_8"], "attr": {"parallel_iterations": {"i": "32"}, "frame_name": {"s": "U3RhdGVmdWxQYXJ0aXRpb25lZENhbGwvZnVuY3Rpb25hbF8xL2xzdG0vUGFydGl0aW9uZWRDYWxsL3doaWxl"}, "T": {"type": "DT_FLOAT"}, "is_constant": {"b": false}}}, {"name": "StatefulPartitionedCall/functional_1/lstm/PartitionedCall/while/enter/_39", "op": "Enter", "input": ["unknown_9"], "attr": {"T": {"type": "DT_FLOAT"}, "is_constant": {"b": false}, "frame_name": {"s": "U3RhdGVmdWxQYXJ0aXRpb25lZENhbGwvZnVuY3Rpb25hbF8xL2xzdG0vUGFydGl0aW9uZWRDYWxsL3doaWxl"}, "parallel_iterations": {"i": "32"}}}, {"name": "StatefulPartitionedCall/functional_1/lstm/PartitionedCall/while/enter/_31", "op": "Enter", "input": ["StatefulPartitionedCall/functional_1/lstm/PartitionedCall/time"], "attr": {"frame_name": {"s": "U3RhdGVmdWxQYXJ0aXRpb25lZENhbGwvZnVuY3Rpb25hbF8xL2xzdG0vUGFydGl0aW9uZWRDYWxsL3doaWxl"}, "parallel_iterations": {"i": "32"}, "is_constant": {"b": false}, "T": {"type": "DT_INT32"}}}, {"name": "StatefulPartitionedCall/functional_1/lstm/PartitionedCall/while/enter/_29", "op": "Enter", "input": ["StatefulPartitionedCall/functional_1/lstm/PartitionedCall/while/loop_counter"], "attr": {"is_constant": {"b": false}, "T": {"type": "DT_INT32"}, "frame_name": {"s": "U3RhdGVmdWxQYXJ0aXRpb25lZENhbGwvZnVuY3Rpb25hbF8xL2xzdG0vUGFydGl0aW9uZWRDYWxsL3doaWxl"}, "parallel_iterations": {"i": "32"}}}, {"name": "StatefulPartitionedCall/functional_1/time_distributed/Shape", "op": "Shape", "input": ["input_1"], "attr": {"out_type": {"type": "DT_INT32"}, "T": {"type": "DT_FLOAT"}}}, {"name": "StatefulPartitionedCall/functional_1/lstm/PartitionedCall/while/merge/_48", "op": "Merge", "input": ["StatefulPartitionedCall/functional_1/lstm/PartitionedCall/while/enter/_37", "StatefulPartitionedCall/functional_1/lstm/PartitionedCall/while/next_iteration/_84"], "attr": {"T": {"type": "DT_FLOAT"}, "N": {"i": "2"}}}, {"name": "StatefulPartitionedCall/functional_1/lstm/PartitionedCall/while/merge/_49", "op": "Merge", "input": ["StatefulPartitionedCall/functional_1/lstm/PartitionedCall/while/enter/_38", "StatefulPartitionedCall/functional_1/lstm/PartitionedCall/while/next_iteration/_85"], "attr": {"T": {"type": "DT_FLOAT"}, "N": {"i": "2"}}}, {"name": "StatefulPartitionedCall/functional_1/lstm/PartitionedCall/while/merge/_50", "op": "Merge", "input": ["StatefulPartitionedCall/functional_1/lstm/PartitionedCall/while/enter/_39", "StatefulPartitionedCall/functional_1/lstm/PartitionedCall/while/next_iteration/_86"], "attr": {"N": {"i": "2"}, "T": {"type": "DT_FLOAT"}}}, {"name": "StatefulPartitionedCall/functional_1/lstm/PartitionedCall/while/merge/_42", "op": "Merge", "input": ["StatefulPartitionedCall/functional_1/lstm/PartitionedCall/while/enter/_31", "StatefulPartitionedCall/functional_1/lstm/PartitionedCall/while/next_iteration/_78"], "attr": {"T": {"type": "DT_INT32"}, "N": {"i": "2"}}}, {"name": "StatefulPartitionedCall/functional_1/lstm/PartitionedCall/while/merge/_40", "op": "Merge", "input": ["StatefulPartitionedCall/functional_1/lstm/PartitionedCall/while/enter/_29", "StatefulPartitionedCall/functional_1/lstm/PartitionedCall/while/next_iteration/_76"], "attr": {"N": {"i": "2"}, "T": {"type": "DT_INT32"}}}, {"name": "StatefulPartitionedCall/functional_1/time_distributed/strided_slice", "op": "StridedSlice", "input": ["StatefulPartitionedCall/functional_1/time_distributed/Shape", "StatefulPartitionedCall/functional_1/time_distributed/strided_slice/stack", "StatefulPartitionedCall/functional_1/time_distributed/strided_slice/stack_1", "StatefulPartitionedCall/functional_1/time_distributed/strided_slice/stack_2"], "attr": {"shrink_axis_mask": {"i": "1"}, "begin_mask": {"i": "0"}, "T": {"type": "DT_INT32"}, "new_axis_mask": {"i": "0"}, "end_mask": {"i": "0"}, "ellipsis_mask": {"i": "0"}, "Index": {"type": "DT_INT32"}}}, {"name": "StatefulPartitionedCall/functional_1/time_distributed/strided_slice_1", "op": "StridedSlice", "input": ["StatefulPartitionedCall/functional_1/time_distributed/Shape", "StatefulPartitionedCall/functional_1/time_distributed/strided_slice_1/stack", "StatefulPartitionedCall/functional_1/time_distributed/strided_slice_1/stack_1", "StatefulPartitionedCall/functional_1/time_distributed/strided_slice_1/stack_2"], "attr": {"shrink_axis_mask": {"i": "1"}, "Index": {"type": "DT_INT32"}, "end_mask": {"i": "0"}, "new_axis_mask": {"i": "0"}, "ellipsis_mask": {"i": "0"}, "T": {"type": "DT_INT32"}, "begin_mask": {"i": "0"}}}, {"name": "StatefulPartitionedCall/functional_1/time_distributed/Reshape/shape", "op": "Pack", "input": ["StatefulPartitionedCall/functional_1/time_distributed/Reshape/shape/0", "StatefulPartitionedCall/functional_1/time_distributed/strided_slice", "StatefulPartitionedCall/functional_1/time_distributed/strided_slice_1", "StatefulPartitionedCall/functional_1/time_distributed/Reshape/shape/3"], "attr": {"N": {"i": "4"}, "T": {"type": "DT_INT32"}, "axis": {"i": "0"}}}, {"name": "StatefulPartitionedCall/functional_1/time_distributed/Reshape", "op": "Reshape", "input": ["input_1", "StatefulPartitionedCall/functional_1/time_distributed/Reshape/shape"], "attr": {"T": {"type": "DT_FLOAT"}, "Tshape": {"type": "DT_INT32"}}}, {"name": "StatefulPartitionedCall/functional_1/time_distributed/resizing/resize/ResizeBilinear", "op": "ResizeBilinear", "input": ["StatefulPartitionedCall/functional_1/time_distributed/Reshape", "StatefulPartitionedCall/functional_1/time_distributed/resizing/resize/size"], "attr": {"half_pixel_centers": {"b": true}, "align_corners": {"b": false}, "T": {"type": "DT_FLOAT"}}}, {"name": "StatefulPartitionedCall/functional_1/time_distributed_1/batch_normalization/FusedBatchNormV3/Mul", "op": "Mul", "input": ["StatefulPartitionedCall/functional_1/time_distributed/resizing/resize/ResizeBilinear", "StatefulPartitionedCall/functional_1/time_distributed_1/batch_normalization/FusedBatchNormV3/Scaled"], "attr": {"T": {"type": "DT_FLOAT"}}}, {"name": "StatefulPartitionedCall/functional_1/time_distributed_1/batch_normalization/FusedBatchNormV3", "op": "Add", "input": ["StatefulPartitionedCall/functional_1/time_distributed_1/batch_normalization/FusedBatchNormV3/Mul", "StatefulPartitionedCall/functional_1/time_distributed_1/batch_normalization/FusedBatchNormV3/Offset"], "attr": {"T": {"type": "DT_FLOAT"}}}, {"name": "StatefulPartitionedCall/functional_1/time_distributed_2/conv2d/Relu", "op": "_FusedConv2D", "input": ["StatefulPartitionedCall/functional_1/time_distributed_1/batch_normalization/FusedBatchNormV3", "unknown_3", "unknown_4"], "device": "/device:CPU:0", "attr": {"dilations": {"list": {"i": ["1", "1", "1", "1"]}}, "strides": {"list": {"i": ["1", "1", "1", "1"]}}, "fused_ops": {"list": {"s": ["Qmlhc0FkZA==", "UmVsdQ=="]}}, "data_format": {"s": "TkhXQw=="}, "padding": {"s": "VkFMSUQ="}, "epsilon": {"f": 0.0}, "num_args": {"i": "1"}, "explicit_paddings": {"list": {}}, "T": {"type": "DT_FLOAT"}, "use_cudnn_on_gpu": {"b": true}}}, {"name": "StatefulPartitionedCall/functional_1/time_distributed_3/conv2d_1/Relu", "op": "_FusedConv2D", "input": ["StatefulPartitionedCall/functional_1/time_distributed_2/conv2d/Relu", "unknown_5", "unknown_6"], "device": "/device:CPU:0", "attr": {"num_args": {"i": "1"}, "strides": {"list": {"i": ["1", "1", "1", "1"]}}, "data_format": {"s": "TkhXQw=="}, "epsilon": {"f": 0.0}, "T": {"type": "DT_FLOAT"}, "use_cudnn_on_gpu": {"b": true}, "dilations": {"list": {"i": ["1", "1", "1", "1"]}}, "explicit_paddings": {"list": {}}, "fused_ops": {"list": {"s": ["Qmlhc0FkZA==", "UmVsdQ=="]}}, "padding": {"s": "VkFMSUQ="}}}, {"name": "StatefulPartitionedCall/functional_1/time_distributed_4/max_pooling2d/MaxPool", "op": "MaxPool", "input": ["StatefulPartitionedCall/functional_1/time_distributed_3/conv2d_1/Relu"], "attr": {"padding": {"s": "VkFMSUQ="}, "ksize": {"list": {"i": ["1", "2", "2", "1"]}}, "strides": {"list": {"i": ["1", "2", "2", "1"]}}, "T": {"type": "DT_FLOAT"}, "data_format": {"s": "TkhXQw=="}}}, {"name": "StatefulPartitionedCall/functional_1/time_distributed_6/Reshape_1", "op": "Reshape", "input": ["StatefulPartitionedCall/functional_1/time_distributed_4/max_pooling2d/MaxPool", "StatefulPartitionedCall/functional_1/time_distributed_6/Reshape_1/shape"], "attr": {"Tshape": {"type": "DT_INT32"}, "T": {"type": "DT_FLOAT"}}}, {"name": "StatefulPartitionedCall/functional_1/lstm/Shape", "op": "Shape", "input": ["StatefulPartitionedCall/functional_1/time_distributed_6/Reshape_1"], "attr": {"out_type": {"type": "DT_INT32"}, "T": {"type": "DT_FLOAT"}}}, {"name": "StatefulPartitionedCall/functional_1/lstm/PartitionedCall/transpose", "op": "Transpose", "input": ["StatefulPartitionedCall/functional_1/time_distributed_6/Reshape_1", "StatefulPartitionedCall/functional_1/lstm/PartitionedCall/transpose/perm"], "attr": {"T": {"type": "DT_FLOAT"}, "Tperm": {"type": "DT_INT32"}}}, {"name": "StatefulPartitionedCall/functional_1/lstm/strided_slice", "op": "StridedSlice", "input": ["StatefulPartitionedCall/functional_1/lstm/Shape", "StatefulPartitionedCall/functional_1/lstm/strided_slice/stack", "StatefulPartitionedCall/functional_1/lstm/strided_slice/stack_1", "StatefulPartitionedCall/functional_1/lstm/strided_slice/stack_2"], "attr": {"shrink_axis_mask": {"i": "1"}, "begin_mask": {"i": "0"}, "ellipsis_mask": {"i": "0"}, "T": {"type": "DT_INT32"}, "Index": {"type": "DT_INT32"}, "new_axis_mask": {"i": "0"}, "end_mask": {"i": "0"}}}, {"name": "StatefulPartitionedCall/functional_1/lstm/PartitionedCall/TensorArrayUnstack/TensorListFromTensor", "op": "TensorListFromTensor", "input": ["StatefulPartitionedCall/functional_1/lstm/PartitionedCall/transpose", "StatefulPartitionedCall/functional_1/lstm/PartitionedCall/TensorArrayUnstack/TensorListFromTensor/element_shape"], "attr": {"shape_type": {"type": "DT_INT32"}, "element_dtype": {"type": "DT_FLOAT"}}}, {"name": "StatefulPartitionedCall/functional_1/lstm/PartitionedCall/Shape", "op": "Shape", "input": ["StatefulPartitionedCall/functional_1/lstm/PartitionedCall/transpose"], "attr": {"T": {"type": "DT_FLOAT"}, "out_type": {"type": "DT_INT32"}}}, {"name": "StatefulPartitionedCall/functional_1/lstm/zeros_1/packed", "op": "Pack", "input": ["StatefulPartitionedCall/functional_1/lstm/strided_slice", "StatefulPartitionedCall/functional_1/lstm/zeros_1/packed/1"], "attr": {"T": {"type": "DT_INT32"}, "N": {"i": "2"}, "axis": {"i": "0"}}}, {"name": "StatefulPartitionedCall/functional_1/lstm/zeros/packed", "op": "Pack", "input": ["StatefulPartitionedCall/functional_1/lstm/strided_slice", "StatefulPartitionedCall/functional_1/lstm/zeros/packed/1"], "attr": {"T": {"type": "DT_INT32"}, "axis": {"i": "0"}, "N": {"i": "2"}}}, {"name": "StatefulPartitionedCall/functional_1/lstm/PartitionedCall/while/enter/_36", "op": "Enter", "input": ["StatefulPartitionedCall/functional_1/lstm/PartitionedCall/TensorArrayUnstack/TensorListFromTensor"], "attr": {"is_constant": {"b": false}, "frame_name": {"s": "U3RhdGVmdWxQYXJ0aXRpb25lZENhbGwvZnVuY3Rpb25hbF8xL2xzdG0vUGFydGl0aW9uZWRDYWxsL3doaWxl"}, "parallel_iterations": {"i": "32"}, "T": {"type": "DT_VARIANT"}}}, {"name": "StatefulPartitionedCall/functional_1/lstm/PartitionedCall/strided_slice", "op": "StridedSlice", "input": ["StatefulPartitionedCall/functional_1/lstm/PartitionedCall/Shape", "StatefulPartitionedCall/functional_1/lstm/PartitionedCall/strided_slice/stack", "StatefulPartitionedCall/functional_1/lstm/PartitionedCall/strided_slice/stack_1", "StatefulPartitionedCall/functional_1/lstm/PartitionedCall/strided_slice/stack_2"], "attr": {"end_mask": {"i": "0"}, "Index": {"type": "DT_INT32"}, "new_axis_mask": {"i": "0"}, "T": {"type": "DT_INT32"}, "shrink_axis_mask": {"i": "1"}, "begin_mask": {"i": "0"}, "ellipsis_mask": {"i": "0"}}}, {"name": "StatefulPartitionedCall/functional_1/lstm/zeros_1", "op": "Fill", "input": ["StatefulPartitionedCall/functional_1/lstm/zeros_1/packed", "StatefulPartitionedCall/functional_1/lstm/zeros_1/Const"], "attr": {"T": {"type": "DT_FLOAT"}, "index_type": {"type": "DT_INT32"}}}, {"name": "StatefulPartitionedCall/functional_1/lstm/zeros", "op": "Fill", "input": ["StatefulPartitionedCall/functional_1/lstm/zeros/packed", "StatefulPartitionedCall/functional_1/lstm/zeros/Const"], "attr": {"index_type": {"type": "DT_INT32"}, "T": {"type": "DT_FLOAT"}}}, {"name": "StatefulPartitionedCall/functional_1/lstm/PartitionedCall/while/merge/_47", "op": "Merge", "input": ["StatefulPartitionedCall/functional_1/lstm/PartitionedCall/while/enter/_36", "StatefulPartitionedCall/functional_1/lstm/PartitionedCall/while/next_iteration/_83"], "attr": {"N": {"i": "2"}, "T": {"type": "DT_VARIANT"}}}, {"name": "StatefulPartitionedCall/functional_1/lstm/PartitionedCall/TensorArrayV2_1", "op": "TensorListReserve", "input": ["StatefulPartitionedCall/functional_1/lstm/PartitionedCall/TensorArrayV2_1/element_shape", "StatefulPartitionedCall/functional_1/lstm/PartitionedCall/strided_slice"], "attr": {"element_dtype": {"type": "DT_FLOAT"}, "shape_type": {"type": "DT_INT32"}}}, {"name": "StatefulPartitionedCall/functional_1/lstm/PartitionedCall/while/enter/_35", "op": "Enter", "input": ["StatefulPartitionedCall/functional_1/lstm/PartitionedCall/strided_slice"], "attr": {"is_constant": {"b": false}, "T": {"type": "DT_INT32"}, "parallel_iterations": {"i": "32"}, "frame_name": {"s": "U3RhdGVmdWxQYXJ0aXRpb25lZENhbGwvZnVuY3Rpb25hbF8xL2xzdG0vUGFydGl0aW9uZWRDYWxsL3doaWxl"}}}, {"name": "StatefulPartitionedCall/functional_1/lstm/PartitionedCall/while/enter/_34", "op": "Enter", "input": ["StatefulPartitionedCall/functional_1/lstm/zeros_1"], "attr": {"T": {"type": "DT_FLOAT"}, "parallel_iterations": {"i": "32"}, "frame_name": {"s": "U3RhdGVmdWxQYXJ0aXRpb25lZENhbGwvZnVuY3Rpb25hbF8xL2xzdG0vUGFydGl0aW9uZWRDYWxsL3doaWxl"}, "is_constant": {"b": false}}}, {"name": "StatefulPartitionedCall/functional_1/lstm/PartitionedCall/while/enter/_33", "op": "Enter", "input": ["StatefulPartitionedCall/functional_1/lstm/zeros"], "attr": {"parallel_iterations": {"i": "32"}, "T": {"type": "DT_FLOAT"}, "is_constant": {"b": false}, "frame_name": {"s": "U3RhdGVmdWxQYXJ0aXRpb25lZENhbGwvZnVuY3Rpb25hbF8xL2xzdG0vUGFydGl0aW9uZWRDYWxsL3doaWxl"}}}, {"name": "StatefulPartitionedCall/functional_1/lstm/PartitionedCall/while/enter/_32", "op": "Enter", "input": ["StatefulPartitionedCall/functional_1/lstm/PartitionedCall/TensorArrayV2_1"], "attr": {"frame_name": {"s": "U3RhdGVmdWxQYXJ0aXRpb25lZENhbGwvZnVuY3Rpb25hbF8xL2xzdG0vUGFydGl0aW9uZWRDYWxsL3doaWxl"}, "T": {"type": "DT_VARIANT"}, "is_constant": {"b": false}, "parallel_iterations": {"i": "32"}}}, {"name": "StatefulPartitionedCall/functional_1/lstm/PartitionedCall/while/merge/_46", "op": "Merge", "input": ["StatefulPartitionedCall/functional_1/lstm/PartitionedCall/while/enter/_35", "StatefulPartitionedCall/functional_1/lstm/PartitionedCall/while/next_iteration/_82"], "attr": {"N": {"i": "2"}, "T": {"type": "DT_INT32"}}}, {"name": "StatefulPartitionedCall/functional_1/lstm/PartitionedCall/while/merge/_45", "op": "Merge", "input": ["StatefulPartitionedCall/functional_1/lstm/PartitionedCall/while/enter/_34", "StatefulPartitionedCall/functional_1/lstm/PartitionedCall/while/next_iteration/_81"], "attr": {"T": {"type": "DT_FLOAT"}, "N": {"i": "2"}}}, {"name": "StatefulPartitionedCall/functional_1/lstm/PartitionedCall/while/merge/_44", "op": "Merge", "input": ["StatefulPartitionedCall/functional_1/lstm/PartitionedCall/while/enter/_33", "StatefulPartitionedCall/functional_1/lstm/PartitionedCall/while/next_iteration/_80"], "attr": {"T": {"type": "DT_FLOAT"}, "N": {"i": "2"}}}, {"name": "StatefulPartitionedCall/functional_1/lstm/PartitionedCall/while/merge/_43", "op": "Merge", "input": ["StatefulPartitionedCall/functional_1/lstm/PartitionedCall/while/enter/_32", "StatefulPartitionedCall/functional_1/lstm/PartitionedCall/while/next_iteration/_79"], "attr": {"N": {"i": "2"}, "T": {"type": "DT_VARIANT"}}}, {"name": "StatefulPartitionedCall/functional_1/lstm/PartitionedCall/while/cond/_27/while/Less", "op": "Less", "input": ["StatefulPartitionedCall/functional_1/lstm/PartitionedCall/while/merge/_42", "StatefulPartitionedCall/functional_1/lstm/PartitionedCall/while/merge/_46", "^StatefulPartitionedCall/functional_1/lstm/PartitionedCall/while/merge/_40"], "attr": {"T": {"type": "DT_INT32"}}}, {"name": "StatefulPartitionedCall/functional_1/lstm/PartitionedCall/while/LoopCond/_51", "op": "LoopCond", "input": ["StatefulPartitionedCall/functional_1/lstm/PartitionedCall/while/cond/_27/while/Less"]}, {"name": "StatefulPartitionedCall/functional_1/lstm/PartitionedCall/while/Func/StatefulPartitionedCall/functional_1/lstm/PartitionedCall/input/_18_switch/_57", "op": "Switch", "input": ["StatefulPartitionedCall/functional_1/lstm/PartitionedCall/while/merge/_45", "StatefulPartitionedCall/functional_1/lstm/PartitionedCall/while/LoopCond/_51"], "attr": {"T": {"type": "DT_FLOAT"}}}, {"name": "StatefulPartitionedCall/functional_1/lstm/PartitionedCall/while/StatefulPartitionedCall/functional_1/lstm/PartitionedCall/TensorArrayUnstack/TensorListFromTensor_switch/_59", "op": "Switch", "input": ["StatefulPartitionedCall/functional_1/lstm/PartitionedCall/while/merge/_47", "StatefulPartitionedCall/functional_1/lstm/PartitionedCall/while/LoopCond/_51"], "attr": {"T": {"type": "DT_VARIANT"}}}, {"name": "StatefulPartitionedCall/functional_1/lstm/PartitionedCall/while/Func/StatefulPartitionedCall/functional_1/lstm/PartitionedCall/input/_19_switch/_60", "op": "Switch", "input": ["StatefulPartitionedCall/functional_1/lstm/PartitionedCall/while/merge/_48", "StatefulPartitionedCall/functional_1/lstm/PartitionedCall/while/LoopCond/_51"], "attr": {"T": {"type": "DT_FLOAT"}}}, {"name": "StatefulPartitionedCall/functional_1/lstm/PartitionedCall/while/Func/StatefulPartitionedCall/functional_1/lstm/PartitionedCall/input/_17_switch/_56", "op": "Switch", "input": ["StatefulPartitionedCall/functional_1/lstm/PartitionedCall/while/merge/_44", "StatefulPartitionedCall/functional_1/lstm/PartitionedCall/while/LoopCond/_51"], "attr": {"T": {"type": "DT_FLOAT"}}}, {"name": "StatefulPartitionedCall/functional_1/lstm/PartitionedCall/while/Func/StatefulPartitionedCall/functional_1/lstm/PartitionedCall/input/_20_switch/_61", "op": "Switch", "input": ["StatefulPartitionedCall/functional_1/lstm/PartitionedCall/while/merge/_49", "StatefulPartitionedCall/functional_1/lstm/PartitionedCall/while/LoopCond/_51"], "attr": {"T": {"type": "DT_FLOAT"}}}, {"name": "StatefulPartitionedCall/functional_1/lstm/PartitionedCall/while/Func/StatefulPartitionedCall/functional_1/lstm/PartitionedCall/input/_21_switch/_62", "op": "Switch", "input": ["StatefulPartitionedCall/functional_1/lstm/PartitionedCall/while/merge/_50", "StatefulPartitionedCall/functional_1/lstm/PartitionedCall/while/LoopCond/_51"], "attr": {"T": {"type": "DT_FLOAT"}}}, {"name": "StatefulPartitionedCall/functional_1/lstm/PartitionedCall/while/StatefulPartitionedCall/functional_1/lstm/PartitionedCall/time_switch/_54", "op": "Switch", "input": ["StatefulPartitionedCall/functional_1/lstm/PartitionedCall/while/merge/_42", "StatefulPartitionedCall/functional_1/lstm/PartitionedCall/while/LoopCond/_51"], "attr": {"T": {"type": "DT_INT32"}}}, {"name": "StatefulPartitionedCall/functional_1/lstm/PartitionedCall/while/StatefulPartitionedCall/functional_1/lstm/PartitionedCall/while/loop_counter_switch/_52", "op": "Switch", "input": ["StatefulPartitionedCall/functional_1/lstm/PartitionedCall/while/merge/_40", "StatefulPartitionedCall/functional_1/lstm/PartitionedCall/while/LoopCond/_51"], "attr": {"T": {"type": "DT_INT32"}}}, {"name": "StatefulPartitionedCall/functional_1/lstm/PartitionedCall/while/StatefulPartitionedCall/functional_1/lstm/PartitionedCall/TensorArrayV2_1_switch/_55", "op": "Switch", "input": ["StatefulPartitionedCall/functional_1/lstm/PartitionedCall/while/merge/_43", "StatefulPartitionedCall/functional_1/lstm/PartitionedCall/while/LoopCond/_51"], "attr": {"T": {"type": "DT_VARIANT"}}}, {"name": "StatefulPartitionedCall/functional_1/lstm/PartitionedCall/while/StatefulPartitionedCall/functional_1/lstm/PartitionedCall/strided_slice_switch/_58", "op": "Switch", "input": ["StatefulPartitionedCall/functional_1/lstm/PartitionedCall/while/merge/_46", "StatefulPartitionedCall/functional_1/lstm/PartitionedCall/while/LoopCond/_51"], "attr": {"T": {"type": "DT_INT32"}}}, {"name": "StatefulPartitionedCall/functional_1/lstm/PartitionedCall/while/loop_body_control/_63", "op": "Identity", "input": ["StatefulPartitionedCall/functional_1/lstm/PartitionedCall/while/StatefulPartitionedCall/functional_1/lstm/PartitionedCall/while/loop_counter_switch/_52:1"], "attr": {"T": {"type": "DT_INT32"}}}, {"name": "StatefulPartitionedCall/functional_1/lstm/PartitionedCall/while/exit/_67", "op": "Exit", "input": ["StatefulPartitionedCall/functional_1/lstm/PartitionedCall/while/StatefulPartitionedCall/functional_1/lstm/PartitionedCall/TensorArrayV2_1_switch/_55"], "attr": {"T": {"type": "DT_VARIANT"}}}, {"name": "StatefulPartitionedCall/functional_1/lstm/PartitionedCall/while/body/_28/while/split/split_dim", "op": "Const", "input": ["^StatefulPartitionedCall/functional_1/lstm/PartitionedCall/while/loop_body_control/_63"], "attr": {"dtype": {"type": "DT_INT32"}, "value": {"tensor": {"dtype": "DT_INT32", "tensorShape": {}}}}}, {"name": "StatefulPartitionedCall/functional_1/lstm/PartitionedCall/while/next_iteration/_83", "op": "NextIteration", "input": ["StatefulPartitionedCall/functional_1/lstm/PartitionedCall/while/StatefulPartitionedCall/functional_1/lstm/PartitionedCall/TensorArrayUnstack/TensorListFromTensor_switch/_59:1", "^StatefulPartitionedCall/functional_1/lstm/PartitionedCall/while/loop_body_control/_63"], "attr": {"T": {"type": "DT_VARIANT"}}}, {"name": "StatefulPartitionedCall/functional_1/lstm/PartitionedCall/while/body/_28/while/TensorArrayV2Read/TensorListGetItem/element_shape", "op": "Const", "input": ["^StatefulPartitionedCall/functional_1/lstm/PartitionedCall/while/loop_body_control/_63"], "attr": {"value": {"tensor": {"dtype": "DT_INT32", "tensorShape": {"dim": [{"size": "2"}]}}}, "dtype": {"type": "DT_INT32"}}}, {"name": "StatefulPartitionedCall/functional_1/lstm/PartitionedCall/while/next_iteration/_84", "op": "NextIteration", "input": ["StatefulPartitionedCall/functional_1/lstm/PartitionedCall/while/Func/StatefulPartitionedCall/functional_1/lstm/PartitionedCall/input/_19_switch/_60:1", "^StatefulPartitionedCall/functional_1/lstm/PartitionedCall/while/loop_body_control/_63"], "attr": {"T": {"type": "DT_FLOAT"}}}, {"name": "StatefulPartitionedCall/functional_1/lstm/PartitionedCall/while/next_iteration/_85", "op": "NextIteration", "input": ["StatefulPartitionedCall/functional_1/lstm/PartitionedCall/while/Func/StatefulPartitionedCall/functional_1/lstm/PartitionedCall/input/_20_switch/_61:1", "^StatefulPartitionedCall/functional_1/lstm/PartitionedCall/while/loop_body_control/_63"], "attr": {"T": {"type": "DT_FLOAT"}}}, {"name": "StatefulPartitionedCall/functional_1/lstm/PartitionedCall/while/body/_28/while/MatMul_1", "op": "MatMul", "input": ["StatefulPartitionedCall/functional_1/lstm/PartitionedCall/while/Func/StatefulPartitionedCall/functional_1/lstm/PartitionedCall/input/_17_switch/_56:1", "StatefulPartitionedCall/functional_1/lstm/PartitionedCall/while/Func/StatefulPartitionedCall/functional_1/lstm/PartitionedCall/input/_20_switch/_61:1", "^StatefulPartitionedCall/functional_1/lstm/PartitionedCall/while/loop_body_control/_63"], "device": "/device:CPU:0", "attr": {"transpose_a": {"b": false}, "T": {"type": "DT_FLOAT"}, "transpose_b": {"b": false}}}, {"name": "StatefulPartitionedCall/functional_1/lstm/PartitionedCall/while/next_iteration/_86", "op": "NextIteration", "input": ["StatefulPartitionedCall/functional_1/lstm/PartitionedCall/while/Func/StatefulPartitionedCall/functional_1/lstm/PartitionedCall/input/_21_switch/_62:1", "^StatefulPartitionedCall/functional_1/lstm/PartitionedCall/while/loop_body_control/_63"], "attr": {"T": {"type": "DT_FLOAT"}}}, {"name": "Func/StatefulPartitionedCall/functional_1/lstm/PartitionedCall/while/body/_28/input/_103", "op": "Identity", "input": ["StatefulPartitionedCall/functional_1/lstm/PartitionedCall/while/StatefulPartitionedCall/functional_1/lstm/PartitionedCall/time_switch/_54:1", "^StatefulPartitionedCall/functional_1/lstm/PartitionedCall/while/loop_body_control/_63"], "attr": {"T": {"type": "DT_INT32"}}}, {"name": "StatefulPartitionedCall/functional_1/lstm/PartitionedCall/while/body/_28/while/add_2/y", "op": "Const", "input": ["^StatefulPartitionedCall/functional_1/lstm/PartitionedCall/while/loop_body_control/_63"], "attr": {"value": {"tensor": {"dtype": "DT_INT32", "tensorShape": {}}}, "dtype": {"type": "DT_INT32"}}}, {"name": "StatefulPartitionedCall/functional_1/lstm/PartitionedCall/while/body/_28/while/add_3/y", "op": "Const", "input": ["^StatefulPartitionedCall/functional_1/lstm/PartitionedCall/while/loop_body_control/_63"], "attr": {"value": {"tensor": {"dtype": "DT_INT32", "tensorShape": {}}}, "dtype": {"type": "DT_INT32"}}}, {"name": "StatefulPartitionedCall/functional_1/lstm/PartitionedCall/while/next_iteration/_82", "op": "NextIteration", "input": ["StatefulPartitionedCall/functional_1/lstm/PartitionedCall/while/StatefulPartitionedCall/functional_1/lstm/PartitionedCall/strided_slice_switch/_58:1", "^StatefulPartitionedCall/functional_1/lstm/PartitionedCall/while/loop_body_control/_63"], "attr": {"T": {"type": "DT_INT32"}}}, {"name": "StatefulPartitionedCall/functional_1/lstm/PartitionedCall/TensorArrayV2Stack/TensorListStack", "op": "TensorListStack", "input": ["StatefulPartitionedCall/functional_1/lstm/PartitionedCall/while/exit/_67", "StatefulPartitionedCall/functional_1/lstm/PartitionedCall/TensorArrayV2Stack/TensorListStack/element_shape"], "attr": {"num_elements": {"i": "-1"}, "element_dtype": {"type": "DT_FLOAT"}}}, {"name": "StatefulPartitionedCall/functional_1/lstm/PartitionedCall/while/body/_28/while/TensorArrayV2Read/TensorListGetItem", "op": "TensorListGetItem", "input": ["StatefulPartitionedCall/functional_1/lstm/PartitionedCall/while/StatefulPartitionedCall/functional_1/lstm/PartitionedCall/TensorArrayUnstack/TensorListFromTensor_switch/_59:1", "Func/StatefulPartitionedCall/functional_1/lstm/PartitionedCall/while/body/_28/input/_103", "StatefulPartitionedCall/functional_1/lstm/PartitionedCall/while/body/_28/while/TensorArrayV2Read/TensorListGetItem/element_shape"], "attr": {"element_dtype": {"type": "DT_FLOAT"}}}, {"name": "StatefulPartitionedCall/functional_1/lstm/PartitionedCall/while/body/_28/while/add_2", "op": "AddV2", "input": ["Func/StatefulPartitionedCall/functional_1/lstm/PartitionedCall/while/body/_28/input/_103", "StatefulPartitionedCall/functional_1/lstm/PartitionedCall/while/body/_28/while/add_2/y"], "attr": {"T": {"type": "DT_INT32"}}}, {"name": "StatefulPartitionedCall/functional_1/lstm/PartitionedCall/while/body/_28/while/add_3", "op": "AddV2", "input": ["StatefulPartitionedCall/functional_1/lstm/PartitionedCall/while/StatefulPartitionedCall/functional_1/lstm/PartitionedCall/while/loop_counter_switch/_52:1", "StatefulPartitionedCall/functional_1/lstm/PartitionedCall/while/body/_28/while/add_3/y"], "attr": {"T": {"type": "DT_INT32"}}}, {"name": "StatefulPartitionedCall/functional_1/lstm/PartitionedCall/strided_slice_2", "op": "StridedSlice", "input": ["StatefulPartitionedCall/functional_1/lstm/PartitionedCall/TensorArrayV2Stack/TensorListStack", "StatefulPartitionedCall/functional_1/lstm/PartitionedCall/strided_slice_2/stack", "StatefulPartitionedCall/functional_1/lstm/PartitionedCall/strided_slice_2/stack_1", "StatefulPartitionedCall/functional_1/lstm/PartitionedCall/strided_slice_2/stack_2"], "attr": {"Index": {"type": "DT_INT32"}, "shrink_axis_mask": {"i": "1"}, "ellipsis_mask": {"i": "0"}, "end_mask": {"i": "0"}, "begin_mask": {"i": "0"}, "new_axis_mask": {"i": "0"}, "T": {"type": "DT_FLOAT"}}}, {"name": "StatefulPartitionedCall/functional_1/lstm/PartitionedCall/while/body/_28/while/MatMul", "op": "MatMul", "input": ["StatefulPartitionedCall/functional_1/lstm/PartitionedCall/while/body/_28/while/TensorArrayV2Read/TensorListGetItem", "StatefulPartitionedCall/functional_1/lstm/PartitionedCall/while/Func/StatefulPartitionedCall/functional_1/lstm/PartitionedCall/input/_19_switch/_60:1"], "device": "/device:CPU:0", "attr": {"transpose_a": {"b": false}, "T": {"type": "DT_FLOAT"}, "transpose_b": {"b": false}}}, {"name": "StatefulPartitionedCall/functional_1/lstm/PartitionedCall/while/next_iteration/_78", "op": "NextIteration", "input": ["StatefulPartitionedCall/functional_1/lstm/PartitionedCall/while/body/_28/while/add_2", "^StatefulPartitionedCall/functional_1/lstm/PartitionedCall/while/loop_body_control/_63"], "attr": {"T": {"type": "DT_INT32"}}}, {"name": "StatefulPartitionedCall/functional_1/lstm/PartitionedCall/while/next_iteration/_76", "op": "NextIteration", "input": ["StatefulPartitionedCall/functional_1/lstm/PartitionedCall/while/body/_28/while/add_3", "^StatefulPartitionedCall/functional_1/lstm/PartitionedCall/while/loop_body_control/_63"], "attr": {"T": {"type": "DT_INT32"}}}, {"name": "StatefulPartitionedCall/functional_1/dense/BiasAdd", "op": "_FusedMatMul", "input": ["StatefulPartitionedCall/functional_1/lstm/PartitionedCall/strided_slice_2", "unknown_10", "unknown_11"], "device": "/device:CPU:0", "attr": {"num_args": {"i": "1"}, "transpose_b": {"b": false}, "epsilon": {"f": 0.0}, "fused_ops": {"list": {"s": ["Qmlhc0FkZA=="]}}, "transpose_a": {"b": false}, "T": {"type": "DT_FLOAT"}}}, {"name": "StatefulPartitionedCall/functional_1/lstm/PartitionedCall/while/body/_28/while/add", "op": "AddV2", "input": ["StatefulPartitionedCall/functional_1/lstm/PartitionedCall/while/body/_28/while/MatMul", "StatefulPartitionedCall/functional_1/lstm/PartitionedCall/while/body/_28/while/MatMul_1"], "attr": {"T": {"type": "DT_FLOAT"}}}, {"name": "StatefulPartitionedCall/functional_1/dense/Softmax", "op": "Softmax", "input": ["StatefulPartitionedCall/functional_1/dense/BiasAdd"], "attr": {"T": {"type": "DT_FLOAT"}}}, {"name": "StatefulPartitionedCall/functional_1/lstm/PartitionedCall/while/body/_28/while/BiasAdd", "op": "BiasAdd", "input": ["StatefulPartitionedCall/functional_1/lstm/PartitionedCall/while/body/_28/while/add", "StatefulPartitionedCall/functional_1/lstm/PartitionedCall/while/Func/StatefulPartitionedCall/functional_1/lstm/PartitionedCall/input/_21_switch/_62:1"], "attr": {"data_format": {"s": "TkhXQw=="}, "T": {"type": "DT_FLOAT"}}}, {"name": "Identity", "op": "Identity", "input": ["StatefulPartitionedCall/functional_1/dense/Softmax"], "attr": {"T": {"type": "DT_FLOAT"}}}, {"name": "StatefulPartitionedCall/functional_1/lstm/PartitionedCall/while/body/_28/while/split", "op": "Split", "input": ["StatefulPartitionedCall/functional_1/lstm/PartitionedCall/while/body/_28/while/split/split_dim", "StatefulPartitionedCall/functional_1/lstm/PartitionedCall/while/body/_28/while/BiasAdd"], "attr": {"num_split": {"i": "4"}, "T": {"type": "DT_FLOAT"}}}, {"name": "StatefulPartitionedCall/functional_1/lstm/PartitionedCall/while/body/_28/while/Sigmoid", "op": "Sigmoid", "input": ["StatefulPartitionedCall/functional_1/lstm/PartitionedCall/while/body/_28/while/split"], "attr": {"T": {"type": "DT_FLOAT"}}}, {"name": "StatefulPartitionedCall/functional_1/lstm/PartitionedCall/while/body/_28/while/Sigmoid_1", "op": "Sigmoid", "input": ["StatefulPartitionedCall/functional_1/lstm/PartitionedCall/while/body/_28/while/split:1"], "attr": {"T": {"type": "DT_FLOAT"}}}, {"name": "StatefulPartitionedCall/functional_1/lstm/PartitionedCall/while/body/_28/while/Tanh", "op": "Tanh", "input": ["StatefulPartitionedCall/functional_1/lstm/PartitionedCall/while/body/_28/while/split:2"], "attr": {"T": {"type": "DT_FLOAT"}}}, {"name": "StatefulPartitionedCall/functional_1/lstm/PartitionedCall/while/body/_28/while/Sigmoid_2", "op": "Sigmoid", "input": ["StatefulPartitionedCall/functional_1/lstm/PartitionedCall/while/body/_28/while/split:3"], "attr": {"T": {"type": "DT_FLOAT"}}}, {"name": "StatefulPartitionedCall/functional_1/lstm/PartitionedCall/while/body/_28/while/mul", "op": "Mul", "input": ["StatefulPartitionedCall/functional_1/lstm/PartitionedCall/while/body/_28/while/Sigmoid_1", "StatefulPartitionedCall/functional_1/lstm/PartitionedCall/while/Func/StatefulPartitionedCall/functional_1/lstm/PartitionedCall/input/_18_switch/_57:1"], "attr": {"T": {"type": "DT_FLOAT"}}}, {"name": "StatefulPartitionedCall/functional_1/lstm/PartitionedCall/while/body/_28/while/mul_1", "op": "Mul", "input": ["StatefulPartitionedCall/functional_1/lstm/PartitionedCall/while/body/_28/while/Sigmoid", "StatefulPartitionedCall/functional_1/lstm/PartitionedCall/while/body/_28/while/Tanh"], "attr": {"T": {"type": "DT_FLOAT"}}}, {"name": "StatefulPartitionedCall/functional_1/lstm/PartitionedCall/while/body/_28/while/add_1", "op": "AddV2", "input": ["StatefulPartitionedCall/functional_1/lstm/PartitionedCall/while/body/_28/while/mul", "StatefulPartitionedCall/functional_1/lstm/PartitionedCall/while/body/_28/while/mul_1"], "attr": {"T": {"type": "DT_FLOAT"}}}, {"name": "StatefulPartitionedCall/functional_1/lstm/PartitionedCall/while/body/_28/while/Tanh_1", "op": "Tanh", "input": ["StatefulPartitionedCall/functional_1/lstm/PartitionedCall/while/body/_28/while/add_1"], "attr": {"T": {"type": "DT_FLOAT"}}}, {"name": "StatefulPartitionedCall/functional_1/lstm/PartitionedCall/while/next_iteration/_81", "op": "NextIteration", "input": ["StatefulPartitionedCall/functional_1/lstm/PartitionedCall/while/body/_28/while/add_1", "^StatefulPartitionedCall/functional_1/lstm/PartitionedCall/while/loop_body_control/_63"], "attr": {"T": {"type": "DT_FLOAT"}}}, {"name": "StatefulPartitionedCall/functional_1/lstm/PartitionedCall/while/body/_28/while/mul_2", "op": "Mul", "input": ["StatefulPartitionedCall/functional_1/lstm/PartitionedCall/while/body/_28/while/Sigmoid_2", "StatefulPartitionedCall/functional_1/lstm/PartitionedCall/while/body/_28/while/Tanh_1"], "attr": {"T": {"type": "DT_FLOAT"}}}, {"name": "StatefulPartitionedCall/functional_1/lstm/PartitionedCall/while/next_iteration/_80", "op": "NextIteration", "input": ["StatefulPartitionedCall/functional_1/lstm/PartitionedCall/while/body/_28/while/mul_2", "^StatefulPartitionedCall/functional_1/lstm/PartitionedCall/while/loop_body_control/_63"], "attr": {"T": {"type": "DT_FLOAT"}}}, {"name": "StatefulPartitionedCall/functional_1/lstm/PartitionedCall/while/body/_28/while/TensorArrayV2Write/TensorListSetItem", "op": "TensorListSetItem", "input": ["StatefulPartitionedCall/functional_1/lstm/PartitionedCall/while/StatefulPartitionedCall/functional_1/lstm/PartitionedCall/TensorArrayV2_1_switch/_55:1", "Func/StatefulPartitionedCall/functional_1/lstm/PartitionedCall/while/body/_28/input/_103", "StatefulPartitionedCall/functional_1/lstm/PartitionedCall/while/body/_28/while/mul_2"], "attr": {"element_dtype": {"type": "DT_FLOAT"}}}, {"name": "StatefulPartitionedCall/functional_1/lstm/PartitionedCall/while/next_iteration/_79", "op": "NextIteration", "input": ["StatefulPartitionedCall/functional_1/lstm/PartitionedCall/while/body/_28/while/TensorArrayV2Write/TensorListSetItem", "^StatefulPartitionedCall/functional_1/lstm/PartitionedCall/while/loop_body_control/_63"], "attr": {"T": {"type": "DT_VARIANT"}}}], "library": {}, "versions": {"producer": 440}}, "weightsManifest": [{"paths": ["group1-shard1of1.bin"], "weights": [{"name": "StatefulPartitionedCall/functional_1/lstm/PartitionedCall/TensorArrayV2_1/element_shape", "shape": [2], "dtype": "int32"}, {"name": "StatefulPartitionedCall/functional_1/lstm/zeros_1/packed/1", "shape": [], "dtype": "int32"}, {"name": "StatefulPartitionedCall/functional_1/lstm/zeros_1/Const", "shape": [], "dtype": "float32", "quantization": {"dtype": "float16", "original_dtype": "float32"}}, {"name": "StatefulPartitionedCall/functional_1/lstm/PartitionedCall/TensorArrayUnstack/TensorListFromTensor/element_shape", "shape": [2], "dtype": "int32"}, {"name": "unknown_7", "shape": [3968, 128], "dtype": "float32", "quantization": {"dtype": "float16", "original_dtype": "float32"}}, {"name": "StatefulPartitionedCall/functional_1/lstm/strided_slice/stack", "shape": [1], "dtype": "int32"}, {"name": "StatefulPartitionedCall/functional_1/lstm/strided_slice/stack_1", "shape": [1], "dtype": "int32"}, {"name": "StatefulPartitionedCall/functional_1/lstm/strided_slice/stack_2", "shape": [1], "dtype": "int32"}, {"name": "StatefulPartitionedCall/functional_1/lstm/zeros/packed/1", "shape": [], "dtype": "int32"}, {"name": "StatefulPartitionedCall/functional_1/lstm/zeros/Const", "shape": [], "dtype": "float32", "quantization": {"dtype": "float16", "original_dtype": "float32"}}, {"name": "unknown_8", "shape": [32, 128], "dtype": "float32", "quantization": {"dtype": "float16", "original_dtype": "float32"}}, {"name": "unknown_9", "shape": [128], "dtype": "float32", "quantization": {"dtype": "float16", "original_dtype": "float32"}}, {"name": "StatefulPartitionedCall/functional_1/lstm/PartitionedCall/time", "shape": [], "dtype": "int32"}, {"name": "StatefulPartitionedCall/functional_1/time_distributed/Reshape/shape/0", "shape": [], "dtype": "int32"}, {"name": "StatefulPartitionedCall/functional_1/time_distributed/strided_slice/stack", "shape": [1], "dtype": "int32"}, {"name": "StatefulPartitionedCall/functional_1/time_distributed/strided_slice/stack_1", "shape": [1], "dtype": "int32"}, {"name": "StatefulPartitionedCall/functional_1/time_distributed/strided_slice/stack_2", "shape": [1], "dtype": "int32"}, {"name": "StatefulPartitionedCall/functional_1/time_distributed/strided_slice_1/stack", "shape": [1], "dtype": "int32"}, {"name": "StatefulPartitionedCall/functional_1/time_distributed/strided_slice_1/stack_1", "shape": [1], "dtype": "int32"}, {"name": "StatefulPartitionedCall/functional_1/time_distributed/strided_slice_1/stack_2", "shape": [1], "dtype": "int32"}, {"name": "StatefulPartitionedCall/functional_1/time_distributed/Reshape/shape/3", "shape": [], "dtype": "int32"}, {"name": "StatefulPartitionedCall/functional_1/time_distributed/resizing/resize/size", "shape": [2], "dtype": "int32"}, {"name": "unknown_3", "shape": [3, 3, 1, 34], "dtype": "float32", "quantization": {"dtype": "float16", "original_dtype": "float32"}}, {"name": "unknown_4", "shape": [34], "dtype": "float32", "quantization": {"dtype": "float16", "original_dtype": "float32"}}, {"name": "unknown_5", "shape": [3, 3, 34, 64], "dtype": "float32", "quantization": {"dtype": "float16", "original_dtype": "float32"}}, {"name": "unknown_6", "shape": [64], "dtype": "float32", "quantization": {"dtype": "float16", "original_dtype": "float32"}}, {"name": "StatefulPartitionedCall/functional_1/time_distributed_6/Reshape_1/shape", "shape": [3], "dtype": "int32"}, {"name": "StatefulPartitionedCall/functional_1/lstm/PartitionedCall/transpose/perm", "shape": [3], "dtype": "int32"}, {"name": "StatefulPartitionedCall/functional_1/lstm/PartitionedCall/strided_slice/stack", "shape": [1], "dtype": "int32"}, {"name": "StatefulPartitionedCall/functional_1/lstm/PartitionedCall/strided_slice/stack_1", "shape": [1], "dtype": "int32"}, {"name": "StatefulPartitionedCall/functional_1/lstm/PartitionedCall/strided_slice/stack_2", "shape": [1], "dtype": "int32"}, {"name": "StatefulPartitionedCall/functional_1/lstm/PartitionedCall/while/loop_counter", "shape": [], "dtype": "int32"}, {"name": "StatefulPartitionedCall/functional_1/lstm/PartitionedCall/TensorArrayV2Stack/TensorListStack/element_shape", "shape": [2], "dtype": "int32"}, {"name": "StatefulPartitionedCall/functional_1/lstm/PartitionedCall/strided_slice_2/stack", "shape": [1], "dtype": "int32"}, {"name": "StatefulPartitionedCall/functional_1/lstm/PartitionedCall/strided_slice_2/stack_1", "shape": [1], "dtype": "int32"}, {"name": "StatefulPartitionedCall/functional_1/lstm/PartitionedCall/strided_slice_2/stack_2", "shape": [1], "dtype": "int32"}, {"name": "unknown_10", "shape": [32, 4], "dtype": "float32", "quantization": {"dtype": "float16", "original_dtype": "float32"}}, {"name": "unknown_11", "shape": [4], "dtype": "float32", "quantization": {"dtype": "float16", "original_dtype": "float32"}}, {"name": "StatefulPartitionedCall/functional_1/time_distributed_1/batch_normalization/FusedBatchNormV3/Scaled", "shape": [1], "dtype": "float32", "quantization": {"dtype": "float16", "original_dtype": "float32"}}, {"name": "StatefulPartitionedCall/functional_1/time_distributed_1/batch_normalization/FusedBatchNormV3/Offset", "shape": [1], "dtype": "float32", "quantization": {"dtype": "float16", "original_dtype": "float32"}}, {"name": "StatefulPartitionedCall/functional_1/lstm/PartitionedCall/while/body/_28/while/split/split_dim", "shape": [], "dtype": "int32"}, {"name": "StatefulPartitionedCall/functional_1/lstm/PartitionedCall/while/body/_28/while/TensorArrayV2Read/TensorListGetItem/element_shape", "shape": [2], "dtype": "int32"}, {"name": "StatefulPartitionedCall/functional_1/lstm/PartitionedCall/while/body/_28/while/add_2/y", "shape": [], "dtype": "int32"}, {"name": "StatefulPartitionedCall/functional_1/lstm/PartitionedCall/while/body/_28/while/add_3/y", "shape": [], "dtype": "int32"}]}]}